1_WordRepresentations/word2vec_gutenberg.pt (torch_old, 710370 bytes, 3 tensors)

projection.weight f4 [10, 8448]
000000 47 3b b4 be 20 78 46 3d 55 1f 4e be 73 07 15 3e
       -0.35201475 0.048454404 -0.2012914 0.14553623
000010 f0 6f 92 3f 6e 3f 10 3f 33 00 66 bc 52 f0 7c be
       1.1440411 0.56346786 -0.014038133 -0.2470105
000020 e5 f7 69 bc 62 0d 26 bf 1a 1c 2e bf 91 72 8b bd
       -0.014280294 -0.6486417 -0.6801163 -0.06808961
000030 62 a4 eb 3e d6 37 79 be 65 93 49 bf e1 b4 17 3e
       0.46023852 -0.24337706 -0.7874053 0.14815094
000040 22 21 59 be b4 cf d6 bd 7e d5 a8 bd b5 53 29 3e
       -0.21204045 -0.10488835 -0.082438454 0.16535838
000050 35 6d b2 be cd e9 63 be 54 45 8d be 84 4e ec be
       -0.34848943 -0.22257157 -0.27591956 -0.46153653
000060 7d 64 c7 3e ba 56 91 3e 8d 49 87 bf a9 19 a1 bd
       0.38943854 0.2838648 -1.0569321 -0.078662224
000070 0e 37 3d bf 10 a8 a3 3e 2a bc c9 3e d3 a6 ca 3e
       -0.7391213 0.3196416 0.3940137 0.39580402
000080 e2 c8 99 be c6 6b 72 be 69 a4 99 bd f6 53 89 bf
       -0.30036074 -0.23673925 -0.07502062 -1.0728748
000090 4c 75 17 bf 55 60 19 bf fb 95 9f be 62 8d 06 bf
       -0.59163356 -0.59912616 -0.31169114 -0.52559483
0000a0 27 ee 14 3f 5b 45 77 3d d1 96 5f 3d 06 45 32 bf
       0.5817589 0.060368877 0.05458719 -0.6963657
0000b0 04 06 eb be bf 56 c5 3d 49 ab c2 3d 45 e1 5f 3e
       -0.45903027 0.09635686 0.09505326 0.21863277
0000c0 75 de 39 bd ca 75 0f bf 90 ba 1f be f0 51 4d bf
       -0.045378167 -0.56039107 -0.15598512 -0.8020315
0000d0 05 b1 2f bf d6 28 15 bc 21 5a bc be b5 ae f5 bd
       -0.68629485 -0.009103974 -0.36787513 -0.11996213
0000e0 2b 0e 1c 3e e7 ad a7 bc e2 66 64 3e 54 e5 14 be
       0.1523978 -0.020468665 0.22304872 -0.14540607
0000f0 0b 15 6e 3d 0c a7 a6 3e 90 23 75 3e bf 4c 7c be
       0.058125537 0.32549322 0.23939347 -0.24638651
000100 4b e9 72 bd 47 da 18 3f aa 3c 46 bf ef da cc bd
       -0.059304517 0.59708065 -0.77436316 -0.10002696
000110 89 47 e5 be cf be 3d 3e 88 7f 01 3e 48 81 22 3d
       -0.4478114 0.18529819 0.12646306 0.039674073
000120 e9 07 8f bd 74 75 28 3e 94 22 c7 3e 85 89 e4 3e
       -0.069839306 0.16451055 0.3889357 0.4463617
000130 f2 23 be be e5 c3 99 3e 4c 2e fe be 73 51 b3 3e
       -0.371368 0.30032268 -0.49644697 0.35023078
000140 91 86 9c be 2b 20 cf bb 1d ea 26 3e cd 5f 95 bd
       -0.30571416 -0.0063209734 0.16300245 -0.07293663
000150 a7 61 88 be 5a 88 a3 3e 67 a9 42 3e dc d0 80 be
       -0.26637003 0.31939965 0.19009934 -0.25159347
000160 f9 cd 2a 3f 76 15 f5 be c1 8b 90 3e f5 3a af 3e
       0.6672054 -0.47867936 0.28231624 0.34224668
000170 1c 4a cf 3d e0 2c b8 be 2e 56 02 bf af 95 0e bd
       0.10121557 -0.35971737 -0.5091275 -0.03481072
000180 b0 b5 e7 3e d2 07 a0 be dd 93 0f be 1e 28 96 be
       0.45255804 -0.31255966 -0.14021249 -0.29327482
000190 7f 42 ff bd ca 21 71 3e 4d 96 e2 3e 7a 6c d1 bd
       -0.12463855 0.23548046 0.44255295 -0.102257684
0001a0 50 b9 57 be 30 3f 80 3e 2e 7a a2 3d 56 9e 44 be
       -0.21066785 0.25048208 0.0793346 -0.19201025
0001b0 54 49 d9 3d 07 7c e1 be da 2c 2e be 4f c1 1c bf
       0.10609689 -0.44039938 -0.17009297 -0.61232466
0001c0 fc 29 a3 be d8 cc eb 3e d5 d3 34 bc 28 e3 c5 be
       -0.3186797 0.4605472 -0.011036833 -0.3864987
0001d0 34 01 3a 3e 7a 5b 96 3f ee ca 14 bd 4e cd 8e be
       0.18164521 1.1746666 -0.03632634 -0.2789101
0001e0 ae 57 c2 3d d9 e4 bd 3b 08 c0 9b bf 58 60 e8 bd
       0.0948938 0.005795103 -1.2167978 -0.11346501
0001f0 6b 1c 37 be 3c 2e 29 bf 49 dc 19 be 05 98 16 be
       -0.17881934 -0.66086173 -0.15025438 -0.14706428
000200 35 ec ea 3d a8 45 5b 3f f8 ad 05 bf 33 22 93 3e
       0.11470834 0.8565316 -0.5221858 0.2873703
000210 15 de 9f be aa 61 18 3f 12 13 db 3e 9b 1a 9c bd
       -0.31224123 0.59524024 0.42787987 -0.07622262
000220 ae 87 a8 be 5b 6f d0 3c 32 f6 a3 be b2 83 3a 3e
       -0.32916015 0.025443723 -0.3202377 0.182143
000230 33 39 82 3e 78 d1 36 3e 41 c8 9b 3e e9 d1 c1 3e
       0.25434265 0.17853343 0.3042622 0.3785546
000240 7a 2c 62 be 93 b4 69 be 28 95 3c be c5 95 1e be
       -0.22087279 -0.2282279 -0.18416274 -0.1548682
000250 f1 f5 89 3e 45 99 44 bf fa a6 26 be 15 56 b5 3e
       0.2694545 -0.7679637 -0.16274634 0.35417238
000260 78 2f c2 3e 80 cf 84 be d7 c8 a8 3e 0c 72 20 3d
       0.3792684 -0.2593956 0.3296573 0.039171264
000270 76 6d c8 bd 7b 44 a9 3e ca 92 2d 3d 6d 6f bf be
       -0.09786503 0.3306006 0.042376317 -0.373897
000280 1b 2e 01 3f 19 df 8f 3d 31 2f 96 be ef db 62 be
       0.50460976 0.070249744 -0.2933288 -0.2215421
000290 33 c1 87 bf 74 bb 49 3f 16 c7 63 3e f9 77 ea be
       -1.0605835 0.78801656 0.22243914 -0.45794657
0002a0 8d 92 85 be f6 01 ac 3d 03 03 cd 3e 19 ae 97 3e
       -0.26088372 0.083988115 0.4004136 0.29625013
0002b0 57 00 aa 3e c8 db 08 3e eb f7 94 be 30 61 37 bf
       0.33203384 0.1336509 -0.29095396 -0.7163267
0002c0 8e aa 21 3f 32 9c 83 3e 30 6e ca be ea 19 e1 bc
       0.6315087 0.25705105 -0.3953719 -0.027478177
0002d0 57 2a 35 be 62 3d f3 3e 4b 67 4f 3d 61 90 a4 3e
       -0.17691933 0.4750777 0.050635617 0.32141402
0002e0 53 28 a2 bf 6f b8 f0 3e 02 5c 8e be 6d 41 35 3e
       -1.2668556 0.47015712 -0.2780457 0.17700739
0002f0 d5 f0 3c bf bb a7 94 3f 52 9d bb be ca c3 82 be
       -0.7380498 1.1613687 -0.36643463 -0.2554
000300 b0 f3 9b be 32 cf 4d be 72 23 8e be 70 9e 92 3d
       -0.30459356 -0.2009857 -0.27761418 0.07159126
000310 4d aa de 3e d7 e5 60 be a8 87 19 3f 2e 1b 29 3f
       0.43489304 -0.21962677 0.5997262 0.660571
000320 0a d7 b8 bc cd bc 26 3d c5 dd 03 3e ab 97 7c 3e
       -0.022563476 0.0407074 0.12877567 0.24667232
000330 fe 8f 4a bd 86 28 81 bc b8 f2 17 3e d8 70 1a 3f
       -0.049453728 -0.015766393 0.14838684 0.60328436
000340 41 6a a6 3e 69 0f 3f 3f 78 19 e5 3e a1 6b c4 be
       0.3250294 0.7463289 0.44745994 -0.38363364
000350 47 14 a9 bd b2 5e f0 3e b9 80 24 be f9 a6 c0 be
       -0.08255821 0.46947247 -0.16064729 -0.3762739
000360 8d 0a 9b 3d ba 23 40 3c 59 01 4e 3f f9 40 1c bf
       0.07570372 0.011727268 0.80470806 -0.6103664
000370 da ca 09 be 53 dd f7 3d 3b 2d 94 3c 2d 64 fb 3e
       -0.13456288 0.12102761 0.018087974 0.49099866
000380 ea 63 14 3e dd b3 c0 3e dc 75 9a be bc fe 89 3e
       0.14491239 0.37637225 -0.30168045 0.2695216
000390 f0 ed b7 be fc af 16 3e f7 29 96 3e 0e 71 54 be
       -0.3592372 0.1471557 0.29328892 -0.20746252
0003a0 f9 52 1f bd 92 ac 74 3e d4 c2 0f bf c2 56 3f 3e
       -0.03889749 0.23893955 -0.5615666 0.18685439
0003b0 ad b5 c3 be b9 04 15 3e f4 ef 8a be 26 15 f7 be
       -0.38224545 0.14552583 -0.27136195 -0.48258322
0003c0 65 59 d1 bd ad 36 f8 3d eb ba 89 be 4c da 0c 3f
       -0.10222129 0.121198036 -0.2690042 0.55020595
0003d0 8e 71 28 bf c3 18 18 be 5b 82 8f 3e 4b 60 43 bf
       -0.6579827 -0.14853196 0.2802914 -0.76318806
0003e0 a0 7c 39 bd 16 d4 8d be 14 45 42 bf cb 1a 9d 3e
       -0.045284867 -0.2770087 -0.75886655 0.30684504
0003f0 23 96 14 bf a0 c9 b2 3e 70 cb 51 bf 30 23 04 3f
       -0.5804159 0.34919453 -0.81951046 0.5161619

output.weight f4 [8448, 10]
000000 40 c9 2d be fc 2b 80 3e 2d b9 8b 3e 96 70 ab 3e
       -0.16971302 0.25033557 0.27289715 0.33484334
000010 b5 6c 14 3e 8a e0 93 3c 1b f4 be 3e d5 66 a5 3e
       0.14494593 0.018051405 0.37295613 0.32305017
000020 fa f2 89 3e b4 41 cf 3e 38 11 c2 3e 08 74 8b be
       0.2694319 0.40479815 0.37903762 -0.27236962
000030 49 41 9b 3d ab a9 b3 bd 95 5e 5c be ab 69 aa bd
       0.075808115 -0.08772596 -0.21520455 -0.08320936
000040 83 08 28 be a1 b5 2b be 6a f9 91 be 71 af 92 be
       -0.16409497 -0.16768505 -0.285106 -0.28649476
000050 52 3b d9 be e7 62 ac 3e 96 07 06 bd d1 8e 05 be
       -0.4242807 0.33669207 -0.03272208 -0.13042761
000060 28 14 98 bc a4 c8 93 3e 34 fe 2b 3e c9 76 bc bd
       -0.018564299 0.28864014 0.1679619 -0.09202344
000070 bf 2a 85 3c 68 83 45 be fc 48 21 be e8 51 8e 3e
       0.016255734 -0.19288409 -0.15750498 0.27796865
000080 0e 69 87 3d 3a 01 b7 bb f7 8f f0 3b 5b c3 ba be
       0.066118345 -0.005584863 0.0073413807 -0.3647717
000090 39 57 35 3e 17 95 17 3d bc 93 9a be d1 f7 fa be
       0.17709054 0.037007418 -0.30190837 -0.49017194
0000a0 39 29 83 3e bb aa 67 bf c5 9e 89 3e 99 4d f5 3f
       0.25617388 -0.9049489 0.26878944 1.9164306
0000b0 7e 34 83 3f 23 20 d9 3e 63 d8 2d bf 87 39 38 3c
       1.0250394 0.4240733 -0.67908305 0.011244184
0000c0 1e 24 52 3e 60 43 00 bf 5e 57 fc 3e 87 1b 05 3e
       0.2052159 -0.50102806 0.49285406 0.12998782
0000d0 ef 5e a3 3e 8a b9 1f 3f 9b 4c bd 3e f5 25 83 3e
       0.31908366 0.62392485 0.36972508 0.25614896
0000e0 c8 8c 76 3d f5 5b 38 bf 88 e8 43 3e 83 ff 09 bf
       0.060192853 -0.72015315 0.19131672 -0.53905505
0000f0 b2 45 22 3e 04 f9 e3 3d 6d d2 c2 3c 99 14 44 3e
       0.15846899 0.1113148 0.02378198 0.19148482
000100 6c 57 bc be fb 54 ca 3e ba 28 4f be 0b 1d be be
       -0.36785448 0.3951796 -0.2023038 -0.37131533
000110 88 ce 8e be 8a 66 b3 3d 45 61 12 bd 15 2a b9 bc
       -0.27891946 0.08759792 -0.035737295 -0.022603074
000120 50 39 c2 be ed 48 0f bb c0 88 29 3e 4a fd bb 3e
       -0.3793435 -0.0021863536 0.16556072 0.36716682
000130 ac 04 82 3d 52 9b a4 be 8a 3b 69 be 09 25 90 3d
       0.06348547 -0.3214975 -0.22776619 0.07038314
000140 e1 29 64 be b0 41 4a bf 1b f3 1e bf 9f 98 f9 3d
       -0.222816 -0.7900648 -0.620897 0.12187313
000150 b8 85 7e bc e5 09 3b 3d f1 2e 5a bf 66 2e a3 3e
       -0.015534811 0.045663733 -0.85227877 0.31871337
000160 23 ab e0 3d a8 81 09 3f 06 61 8f be 4c 07 eb bc
       0.10970142 0.53713465 -0.2800371 -0.028690003
000170 c3 c3 22 be 2f 5b 39 3e 47 11 dc be 58 3c 1b be
       -0.1589499 0.1810119 -0.42981932 -0.15159738
000180 56 71 7d 3e ef fc a3 3e 01 f5 c0 be 01 5f f8 3e
       0.24750265 0.3202891 -0.37686923 0.48509982
000190 e2 d2 8d bf 00 e4 3b 3f bd ec df be f2 88 04 c0
       -1.1079981 0.73394775 -0.43735304 -2.0708585
0001a0 6d b0 e8 bb fb 72 22 bd 71 73 96 bd ec 07 01 bf
       -0.0071011097 -0.039660435 -0.073462375 -0.5040271
0001b0 09 ab 81 3f 3d cf b0 be 75 98 0a be 3a d7 52 be
       1.0130321 -0.3453311 -0.1353472 -0.20589915
0001c0 98 bc 39 3f f6 aa cd 3e 64 52 8e 3d 7b 6f a2 3e
       0.72553396 0.40169495 0.069493085 0.31725678
0001d0 60 72 07 3f 5c fe d2 3f d8 3d 20 3f 68 b1 0c 3f
       0.529089 1.6483874 0.62594366 0.549582
0001e0 75 12 ff 3e f2 5e 15 40 ca 96 57 3f 46 dc 14 40
       0.4981877 2.33392 0.8421446 2.3259444
0001f0 c8 ad 52 3e b5 7e d7 be d8 d5 0e 3e 21 5d be 3d
       0.20574105 -0.42088857 0.13948762 0.09295107
000200 09 93 20 bf ed 17 1c 3f bf 58 02 bf 87 a2 09 3f
       -0.6272436 0.6097401 -0.50916666 0.5376362
000210 5d 9e ad 3e 2b 59 2d 3c 75 55 d0 3d 71 70 b1 3e
       0.33909884 0.010580341 0.1017255 0.34656098
000220 0d 25 17 3f e3 a9 b9 bf b6 dc b2 be d0 e5 18 be
       0.5904091 -1.450497 -0.34934014 -0.14931417
000230 95 5c 35 bf 4d 93 3d 40 09 99 9e 3d fc de c2 bd
       -0.70844394 2.9621155 0.07744033 -0.09515187
000240 b7 5f d1 3e e3 8c 10 bf 8f 9e 66 3f 7a c6 f3 be
       0.40893337 -0.56464976 0.9008569 -0.47612363
000250 28 85 3c 3f aa 98 5c bf 88 3f 59 3e f4 fd 18 3d
       0.7364068 -0.86170447 0.21215641 0.037351564
000260 aa c1 38 bd 74 0c 02 bf 65 2c 30 be 37 da 0b be
       -0.045106567 -0.5080025 -0.17204435 -0.13657461
000270 7f d4 19 be 1a 37 06 bf 96 58 23 be 0f 08 0e bf
       -0.15022467 -0.5242783 -0.15951762 -0.55481046
000280 e9 09 9c 3d 21 d9 c3 3e 09 79 29 3e 72 b6 51 be
       0.07619078 0.38251594 0.16550077 -0.20479754
000290 00 1e 7f be 07 b2 0d be 12 37 e2 3e f6 cc 42 be
       -0.24913788 -0.13837443 0.4418264 -0.19023499
0002a0 34 ce a7 bd f7 f7 0f bd a7 8c c6 be 4a 0d e3 3e
       -0.08193627 -0.035148587 -0.38779184 0.44346076
0002b0 ae 59 07 3f be 5c 83 be 3b fa 57 3e e6 8e 0b 3f
       0.52871215 -0.25656694 0.21091549 0.5451492
0002c0 37 cd db 3d cd 4e 97 bf 44 42 cd be 94 a8 27 3e
       0.10732501 -1.1820923 -0.4008962 0.16372901
0002d0 bd d5 90 be 25 63 ff 3d e2 0d 22 be 46 1d 15 be
       -0.2828807 0.12470082 -0.15825608 -0.14561948
0002e0 9d 27 55 3f 84 bb 38 bf 3d c3 7e bd 80 21 01 3f
       0.8326357 -0.72161126 -0.062197912 0.5044174
0002f0 d8 e1 96 3f 67 ab 7e 3e 81 e3 0d 3f db 53 2d be
       1.1787672 0.24870072 0.5542527 -0.1692652
000300 c5 c5 21 3f ba bc 2f bf c8 41 3e be 80 8c 55 be
       0.631924 -0.6864735 -0.18579781 -0.20854378
000310 98 0b 9f bb a6 7e f4 be 6b 84 be be ae f2 90 be
       -0.004853677 -0.47752875 -0.37210402 -0.2831015
000320 52 03 1b be b7 d8 d9 be 84 0d e9 bd 3c 08 46 3f
       -0.15137985 -0.42548153 -0.11379531 0.77356315
000330 21 8e e1 be 10 29 4d be 9f ef db 3e ce b7 c9 3d
       -0.44053748 -0.20035195 0.42956254 0.09849511
000340 f1 66 15 bf 1b 30 f4 bc e2 91 97 be 8d f5 40 3e
       -0.583602 -0.029808095 -0.29603487 0.1884367
000350 ad 89 84 3d 34 5f dd bd 99 7b 1f 3e ed 37 4b be
       0.06471572 -0.10809174 0.15574493 -0.19845553
000360 bd 3c f0 3d 89 93 ca 3d 6d 77 98 3e 1e 62 82 be
       0.11730335 0.09891421 0.29778615 -0.25465482
000370 8f 97 5f 3e c3 e3 05 be 22 5c a9 bf 07 58 a4 bc
       0.21835159 -0.13075165 -1.3231242 -0.020061506
000380 63 85 e5 3e a8 f4 b3 bd 04 5b c8 bc cc db c6 bc
       0.44828328 -0.08786899 -0.024457462 -0.02427473
000390 8c f1 cf 3e 9a e6 bf bd 02 9b 52 be fc 2b d5 be
       0.40613973 -0.09370156 -0.20566943 -0.4163512
0003a0 f8 27 e3 3e 58 6a 85 bf 72 a7 5c 3f f8 c0 36 3e
       0.4436643 -1.0423079 0.86193 0.17847049
0003b0 20 ba 98 3e 4f cc b2 3e 11 8a 89 3e 84 20 03 3f
       0.29829502 0.349215 0.2686315 0.5122149
0003c0 8d d2 10 be 15 86 a4 bd fc 2e 00 be e6 b5 bc 3e
       -0.14142819 -0.080333866 -0.12517923 0.36857527
0003d0 82 21 e9 3b 87 35 80 bd 0e c1 bc be 35 55 a1 be
       0.00711459 -0.062602095 -0.3686604 -0.3151032
0003e0 7a e8 0a 3d de e1 a5 be 5a 2e 09 3f 97 ed 6e bd
       0.033913113 -0.32398885 0.5358635 -0.058332052
0003f0 f7 55 2c 3e 85 55 01 be 5a 0e 45 be 95 67 5f be
       0.16829668 -0.1263028 -0.19243756 -0.21816857

output.bias f4 [8448]
000000 27 7a 04 bf f3 2d 7d bf 82 33 11 bf 6c 6f 2c bf
       -0.5174889 -0.9889824 -0.5671922 -0.67357516
000010 3d ff a1 40 82 c8 23 bf 17 7c 38 bf e8 35 0d bf
       5.062407 -0.63977826 -0.72064346 -0.5516038
000020 da e5 11 3f 28 8d 6a bf 34 6f b5 3f 4f 3b bd 3f
       0.5699135 -0.9162164 1.4174562 1.4783725
000030 25 eb b1 3f d9 2a 73 be 07 9d aa 3e c2 f6 15 bf
       1.3899885 -0.23746814 0.33322927 -0.5857965
000040 b1 6f 5f bf 76 7e 6c be 1d 78 88 3f cf a8 40 bf
       -0.872798 -0.23095116 1.0661656 -0.7525758
000050 b1 a3 4d bf 0a 4f 52 be 4d af 03 40 15 74 0d 3f
       -0.803279 -0.20537964 2.0575745 0.5525525
000060 82 68 bf be b1 9d 7c bf 21 7f e8 3c 4c 1e 7d bf
       -0.3738442 -0.9867812 0.028380932 -0.98874354
000070 d6 ea 1d bf 26 2c 5a bf ab b0 16 40 60 e1 e9 be
       -0.61686456 -0.85223615 2.354533 -0.4567976
000080 25 9a 5c be 1b 2e 1b bf d9 3d 32 bf c3 fc 0f 40
       -0.21543176 -0.60617226 -0.6962562 2.2498024
000090 49 ef ce be 90 fc da be 56 8d 22 bf 34 fb 2e bf
       -0.40416935 -0.42770815 -0.6349691 -0.68352056
0000a0 7d d9 bd be 4c 77 14 bf 7d 98 0f 3e 32 31 a9 be
       -0.37079993 -0.5799453 0.14023013 -0.33045346
0000b0 f2 a4 b0 be a0 fd 77 bf be 2c c1 be 8f 59 af 3e
       -0.34500843 -0.96871376 -0.37729448 0.34248015
0000c0 79 3b bc bd b8 97 19 bf a9 5a 03 bf 37 47 3e bf
       -0.09191031 -0.5999713 -0.5131021 -0.74327415
0000d0 a8 7d 16 bf 09 19 b0 be a0 d9 6b bf d4 eb 6c 3e
       -0.58785486 -0.343941 -0.92128944 0.23136836
0000e0 e1 08 70 bf 51 66 eb be 8f 91 16 bf 81 67 62 3d
       -0.9376355 -0.459765 -0.58815855 0.05527449
0000f0 ae f6 10 bf 83 85 3d 3e 7d 5d f1 be 21 89 a2 be
       -0.56626403 0.18507962 -0.47141638 -0.31745246
000100 9c 8c 61 3e bc 91 ee be 33 3c 9b 3d 45 66 46 bf
       0.22026294 -0.46595562 0.075798415 -0.774998
000110 94 a2 c1 bd f1 5e 6f 3f 54 22 7f bf e8 0f 4b bf
       -0.094548374 0.93504244 -0.99661756 -0.79321146
000120 00 32 bc 3f 23 1a 5a bf 66 76 11 3f 76 21 e9 bd
       1.4702759 -0.8519613 0.56821287 -0.11383335
000130 25 52 82 3f 0d 68 33 3f 87 39 35 3e 88 bc 82 3f
       1.0181319 0.70080644 0.17697726 1.0213785
000140 95 8a 46 bf f6 ce b4 be 04 a1 32 bf 81 84 c9 3e
       -0.7755521 -0.3531415 -0.6977694 0.39358905
000150 b0 42 55 bf 44 77 7c bd f1 78 32 bf 6f 2c 94 3d
       -0.8330488 -0.061637178 -0.6971579 0.072350375
000160 01 f1 20 bf 7f fe 99 3f c7 63 2b bf dd ab 78 bf
       -0.6286774 1.2030791 -0.66949123 -0.9713724
000170 10 0b 1f 40 23 aa 3e bf bd 7b 80 bf 02 4c 80 bf
       2.4850502 -0.7447836 -1.0037762 -1.0023196
000180 0b ad 17 bf 90 60 58 be 01 f5 6b bf ab e3 f0 3f
       -0.5924842 -0.21130586 -0.9217072 1.8819479
000190 5c fa 7f bf b7 69 14 bf 1d bb 81 be 7e d6 e4 be
       -0.99991393 -0.5797381 -0.2533807 -0.44694895
0001a0 04 43 a3 be 53 1a 27 3f 4e 43 73 bf 0b aa 27 bf
       -0.31887066 0.6527454 -0.95024574 -0.6549384
0001b0 72 ef 86 3e 3a 63 29 bf fd 17 7a bf 7a c0 24 3e
       0.26354557 -0.6616703 -0.97692853 0.16089049
0001c0 41 80 42 bf 6e ad 44 be e5 bf 85 40 6c 86 e5 3c
       -0.7597695 -0.19206783 4.1796746 0.028018199
0001d0 84 bf da be 62 d9 42 bf d4 ab 1f 3e 21 3d 2f 40
       -0.4272424 -0.7611295 0.15592891 2.738106
0001e0 3a 5f 12 bf e5 e4 6f bf 78 5f ff be b2 2c 8e bd
       -0.57176554 -0.9370864 -0.49877524 -0.06942119
0001f0 c4 34 fc be ca bd 55 bf d8 1b bc 3f 66 ba 36 3e
       -0.49259007 -0.8349272 1.4695997 0.17844543
000200 5b bc 24 3f 30 d1 c1 3e 3f 94 0f 3f 20 33 77 be
       0.6434991 0.3785491 0.5608558 -0.24140596
000210 63 39 b3 3f 3b fb 0e bf d8 d1 7d bf 35 b5 03 bf
       1.4001888 -0.558521 -0.9914832 -0.51448375
000220 e7 61 de be d9 d1 62 bf 12 e4 e9 3f 95 2d 7d bf
       -0.4343407 -0.8860145 1.8272727 -0.9889768
000230 3e c8 58 bf c8 6f 37 bf c2 d3 7c bf 95 0f eb be
       -0.84680545 -0.7165494 -0.98760617 -0.45910326
000240 5a 1a e2 be 3b dd 52 bf 1d aa 78 bf b0 39 60 3f
       -0.4416073 -0.8236882 -0.9713457 0.87588024
000250 51 16 80 bf 51 17 97 3f f3 31 de be c1 be bb be
       -1.000681 1.1803991 -0.43397483 -0.3666897
000260 b8 9a 85 3f 7b 6e b6 3e b5 c4 0c 40 85 01 68 bf
       1.0437841 0.35631165 2.199506 -0.9062732
000270 e8 53 65 bf 73 56 b1 be ad be 7b bf 73 ae 14 3f
       -0.89581156 -0.34636268 -0.98337823 0.5807869
000280 5e a5 10 bf 3d fc 24 be 74 03 46 3f 25 c0 79 3d
       -0.5650233 -0.16111846 0.7734902 0.06097426
000290 6b 38 7b 3f 7c af 5d 3f 93 11 7c bf de d0 1f 40
       0.9813296 0.8659589 -0.98464316 2.4971232
0002a0 18 d5 48 3f bd 35 58 40 bc d0 f1 3d 2d ec 6f 3d
       0.78450155 3.37828 0.11807391 0.058574844
0002b0 43 c6 24 bf 0a 91 17 40 f9 68 7b 3e 16 14 69 bf
       -0.64365023 2.3682275 0.24551763 -0.91046274
0002c0 1d 17 20 be fa 9b 0c bf e6 8d f9 be 5c 1a 4e bf
       -0.15633817 -0.549255 -0.48741072 -0.8050897
0002d0 fc 2c 15 bf d1 f9 90 bd 26 6a ff be 35 a5 fc 3d
       -0.58271766 -0.07078899 -0.49885672 0.12336198
0002e0 25 58 8b 3e 20 e4 31 be c5 0e a6 bc 71 75 4d bf
       0.27215686 -0.17372179 -0.020270715 -0.80257326
0002f0 71 c6 eb 3e b5 d4 0e bf 45 78 3b bf c4 b1 90 be
       0.46049836 -0.55793315 -0.7323039 -0.28260624
000300 01 18 1b bf 50 25 0c be 7f d6 18 3e e2 f1 62 bf
       -0.605835 -0.13686109 0.14925574 -0.88650334
000310 21 b3 74 bf b2 be d5 be 81 e7 40 40 4c 56 90 be
       -0.9558583 -0.4174705 3.0141299 -0.2819084
000320 94 b5 ab be 95 fd 17 be f6 a6 42 bf 24 51 04 bf
       -0.3353697 -0.14842828 -0.7603601 -0.5168631
000330 84 01 54 be 3f 55 fb 3e cf 5c c0 be 28 b3 0e 40
       -0.20703703 0.49088475 -0.37570807 2.2296848
000340 71 34 80 bf c8 8d 2f bf 8c 96 ed be aa b3 04 3f
       -1.0016004 -0.68575716 -0.4640392 0.51836646
000350 3f d8 de 3f 4d 6d aa 3d 8b 06 30 bf 62 23 7c bf
       1.7409743 0.08321629 -0.68759984 -0.9849149
000360 d4 b3 2c bf 9a b2 bc 3f 9f a7 37 3f e6 15 20 bf
       -0.67461896 1.4742005 0.71740144 -0.62533414
000370 92 1b a3 3f 2d 8f be be f9 18 1d be 9e a9 0d be
       1.2742789 -0.3721861 -0.15341558 -0.13834235
000380 ee 8d 7c bf a0 7d 00 40 49 9d 56 bf 99 01 c1 be
       -0.9865407 2.0076675 -0.8383375 -0.3769653
000390 f2 b0 32 bf b3 2b 74 bf 94 5c 19 40 d8 9c 3a bf
       -0.6980125 -0.9537918 2.3962755 -0.72895575
0003a0 b0 2d 59 bf 6c b2 61 bf 1c 82 84 bf 7a 50 4a bf
       -0.8483534 -0.88162875 -1.0352206 -0.7902905
0003b0 f6 44 99 be 7d c9 16 40 97 fd 02 bf ed 4c 2a be
       -0.29935426 2.3560479 -0.511682 -0.16630907
0003c0 53 17 8d be 5f f1 ec be d4 52 3d bf 99 8d 1d bf
       -0.27556857 -0.46277902 -0.7395451 -0.61544186
0003d0 39 14 7c 3f 87 76 86 3e a7 c1 46 3f 81 6d 79 3f
       0.9846836 0.26262304 0.7763924 0.97432715
0003e0 7d e2 24 3e 71 de c1 3f 3c a9 2f bf b5 3c 16 bf
       0.16102023 1.5146009 -0.68617606 -0.5868638
0003f0 e9 e9 af 3f a5 79 6a bf ed 6a d7 bd 6d c8 58 bf
       1.3743259 -0.91591865 -0.10518441 -0.84680825
