1_WordRepresentations/word2vec.pt (torch_old, 7738 bytes, 4 tensors)

projection.weight f4 [10, 82]
00000000: d295 5939 bb59 953d b930 c83d 3541 4cbc
00000010: 6465 c2bd e242 cc3d e1d2 b8bd 93bc 1bbd
00000020: b5f8 cdbd 43e9 b03d 993a bbbd d989 a23d
00000030: 2b25 c63d 7213 4b3d 381a 67bd 5339 053d
00000040: b1d5 8cbc 270d 6c3c 5710 5ebc 52b1 b13d
00000050: c160 153d 10b6 d43d edb8 fbbc 0b83 5ebd
00000060: 2894 1fbc 7e12 273c 08d1 463d 20b8 3d3d
00000070: 86f1 b03d 7822 babc f8ef 93bd fd7b a53d
00000080: e355 90bc 4204 623d d97d 04bd f5da 753b
00000090: f18b 163d d9fa 9a3d c0b3 ec3c b01e 5e3d
000000a0: 4e90 f8bc fd43 9b3d 5814 32bd 7857 913b
000000b0: 2212 d2bd 8990 af3d f874 9fbc 2eb4 3c3d
000000c0: 2115 3ebd 62d8 6bbd fcc6 7e3d 1f44 ce3c
000000d0: 01c4 ac3c 5df8 89bd 8f62 87bd 3d25 8e3d
000000e0: 939d be3d 1f42 da3d 26ef 6abd 574e efbc
000000f0: cc23 a3bd 2b1b 85bd 97d3 7ebd a2b1 443d
00000100: 184b 883d 2f98 ba3d 776a aabc f44e dfbd
00000110: 2b23 cebd e6b0 8d3d 065b 1cbc 459a 8bbd
00000120: 60dc b53d 7869 e23c 1f43 90bc dcfa be3d
00000130: 5de4 b4bd e8cd 003d 5ba7 b83d 1293 e1ba
00000140: 0029 9f3d f08c da3c a83d e6bd a791 323c
00000150: 0833 ae3d 8d7d 1dbd 23f4 ad3d 625e 4dbd
00000160: 7e22 813c c73d d63d 5900 383d 0237 493d
00000170: 4c0e b0bc 629d c7bd c836 54bd 3258 a0bc
00000180: cdd2 b73c 35a0 77bd 8380 c5bd d184 a0bc
00000190: d2c3 a33c b00d ad3d 27cf a0bd 7cbf 81bc
000001a0: 87c1 0d3d 4615 b4bc f92c 99bd bda3 d1bb
000001b0: 1c01 84bd 1b4a a03c 1db3 88bc a2cd 62bd
000001c0: 4a1d 953d c6cb 12bd a1d3 bdbc cb27 d13d
000001d0: 2238 5b3d 28d9 02bd 7b07 b43d f837 afbc
000001e0: db01 c13d 8a28 e43c 733f 723d d82d 6bbb
000001f0: f4fd 123d 8f0b d2bd 82a6 b8bd fb32 48bd
00000200: 8f5f 7a3c 30e7 f9bc 47e5 e93d f6c7 a8bd
00000210: e22c a3bd fb2c ea3d 5795 aa3d f8c2 70bd
00000220: b9fc b83d f386 c8bd d7ca 543b 3086 c03d
00000230: bd4b 6d39 9958 b1bd 25e5 3fbd f93f 8c3d
00000240: 76d3 983d 9db0 a5bd d587 cf3d 2408 3bbd
00000250: 08c6 4ebd e517 cc3b ef7b a9ba dcd3 a7bd
00000260: a33c 9bbd 2e2e d5bc acef cc3d 4214 1e3d
00000270: 57b2 9bbd 2c28 d63d 1686 5a3d 649c ffbc
00000280: d266 643d d2dc babd 7578 433c 9bd4 903d
00000290: 3205 4d3a 5b6a 993d 2c59 92bd 08a5 d93d
000002a0: cf31 d73d c4c1 cabd 95e0 833d 837b 98bd
000002b0: f753 bf3d 66e5 46bd a288 b43d 81c1 cb3c
000002c0: ca95 843d 819c b1bd f8ad 3fbd fcf2 c6bd
000002d0: eef7 b93d 8047 af3d 9068 b53d 1d86 8cbd
000002e0: c335 b23d 9c0f b93d 2e0e b33d 5bc7 3f3d
000002f0: c60a ffbd 3d3c e83c 7844 733d e8dd 5d3d
00000300: 4acc 96bd 7205 b9bd ac8b b83d 5f60 b53d
00000310: 6fa6 c9bc 403f b9bc 06c8 98bd bb1d 163d
00000320: 2b2d 933d 8aa6 6cbd 73c5 4fbd c2f3 843d
00000330: 4619 d9bd 7632 b23d f0b2 993d ccdc 99bd
00000340: 46bc 26bc 535d b93d d01b 08bd 2288 59bd
00000350: f45f c8ba c721 df3d 39ad 323d 2126 a0bd
00000360: aacb d83c 8a76 393d 2a58 1cbd 608a 453d
00000370: 004a abbd f0d4 d53d 2b64 d33d 2acd 803d
00000380: cbb9 d4bc 0033 5abd e143 873c 2ed2 adbc
00000390: ec15 753d 63b6 afbd fdb9 bfbd 9640 7dbd
000003a0: 4864 d63d 91d2 f9bc 4f3b b9bd 8c27 d0bd
000003b0: a0d2 693d 512b 563d add7 8bbc 406e 143b
000003c0: 29a6 23bd d4c5 9bbd ee48 27bd 5ca5 d33d
000003d0: 3078 d83b 0f7b 9dbd 54cd acbd 9e01 223d
000003e0: 95dc 393d b994 c23c 7684 baba cd56 4a3a
000003f0: cacd b23d 2dbb 353d 9136 3abd 8a09 5abc
0.00020750545 0.07292505 0.09774918 -0.012466718 -0.09491995 0.099736944 -0.09024597 -0.038021635
-0.10057203 0.08638241 -0.09142036 0.079364486 0.09675058 0.04957909 -0.05642149 0.03252537
-0.01719174 0.014407433 -0.0135537 0.08676399 0.036469225 0.10386288 -0.030727828 -0.05432419
-0.009739913 0.01019728 0.04853919 0.046318173 0.08639817 -0.022721514 -0.07223505 0.080802895
-0.017619079 0.05517984 -0.03234658 0.0037514542 0.036754552 0.07567377 0.028894305 0.054228485
-0.030342247 0.07581327 -0.043476433 0.004435476 -0.10257365 0.0857249 -0.019464955 0.04607027
-0.04640687 -0.057579406 0.062201485 0.025178967 0.021089556 -0.06736825 -0.066105954 0.069406964
0.09307399 0.10657143 -0.057356976 -0.02921216 -0.07965812 -0.064993225 -0.062213507 0.048020966
0.06654948 0.09111058 -0.02080272 -0.10903731 -0.100653015 0.06918506 -0.009543186 -0.06816534
0.08879924 0.027638182 -0.01761013 0.093251914 -0.08832619 0.031446368 0.090162955 -0.0017209968
0.07771492 0.026678532 -0.11242229 0.010898984 0.08505827 -0.038449813 0.08493831 -0.05013884
0.015763517 0.10461002 0.044922207 0.049124725 -0.021491192 -0.09746815 -0.051810056 -0.019573305
0.022439385 -0.06045552 -0.09643652 -0.019594582 0.019990835 0.08449876 -0.07852011 -0.015838377
0.03460839 -0.0219828 -0.07479281 -0.006397693 -0.06445524 0.019566586 -0.01668697 -0.055371888
0.07280977 -0.035838865 -0.023172202 0.10212668 0.05352033 -0.031945378 0.08790489 -0.021388993
0.09424182 0.027851362 0.05914254 -0.003588548 0.03588672 -0.10256111 -0.09016134 -0.048876744
0.015281572 -0.030505747 0.11420684 -0.082412645 -0.07967545 0.114343606 0.083292656 -0.058779687
0.09032578 -0.097913645 0.0032469535 0.09400594 0.00022630296 -0.08659477 -0.04684939 0.06848139
0.07462208 -0.08090327 0.1013333 -0.04566206 -0.050481826 0.0062284344 -0.0012930612 -0.08194706
-0.07579925 -0.026022997 0.10006651 0.038593538 -0.07602375 0.10456881 0.05335053 -0.031202503
0.05576212 -0.091241494 0.011930575 0.07071801 0.00078209036 0.07490989 -0.071459144 0.1062718
0.10507547 -0.09900239 0.0643932 -0.07445433 0.09342187 -0.048558615 0.08815123 0.024872543
0.064738825 -0.08672429 -0.04679677 -0.09714314 0.09080492 0.085585594 0.08857834 -0.068615176
0.087016605 0.090361804 0.08742939 0.04682098 -0.12453227 0.028349036 0.05939147 0.054166704
-0.07363184 -0.09034242 0.09011015 0.08856272 -0.024615495 -0.022613168 -0.074600264 0.036649447
0.071863495 -0.05777601 -0.05072541 0.064918056 -0.10600524 0.08701031 0.07504833 -0.07512817
-0.010176724 0.09051003 -0.03322965 -0.053108342 -0.0015287385 0.108951144 0.04362223 -0.078197725
0.026464302 0.045279063 -0.038170017 0.048227668 -0.08363724 0.10441005 0.1032184 0.06289132
-0.0259675 -0.053271294 0.01651186 -0.021218386 0.05983536 -0.085797094 -0.09361646 -0.061829172
0.10468346 -0.030495914 -0.09044515 -0.10163793 0.057085633 0.052287403 -0.017070616 0.0022648722
-0.039953385 -0.07606092 -0.040841036 0.10334274 0.0066061243 -0.07689487 -0.08437601 0.039552324
0.04537638 0.023752557 -0.001423015 0.0007718623 0.087306574 0.044367958 -0.045462195 -0.013307938

projection.bias f4 [10]
00000000: f4f7 cb3c 64ec 553e 5b35 b23d 733c 1e3e
00000010: e25c ddbd e3b4 89bd d5ba e23d c8e7 333d
00000020: 2312 a23b 8f15 1d3e
0.024898507 0.20890957 0.08701583 0.15452747 -0.108087316 -0.067239545 0.11070792 0.043922216
0.0049460097 0.15340255

output.weight f4 [82, 10]
00000000: e3c3 0f3e 8bfb 163e 159d 3f3e 8c8b 2fbe
00000010: 9224 2c3e 19a4 9e3e b189 113e 8977 75be
00000020: 4c35 fa3d d0e9 183e 5ad2 63bd d923 a0be
00000030: fccb a3bd f4bc 5ebd 5fd4 25be 59c9 963e
00000040: 9e54 cabd 3ed6 0abe f2f4 163e c3f6 0c3e
00000050: c792 9cbe e558 5dbc 21ac 4c3c 8597 7b3e
00000060: 5487 64be 3b15 723e 2cbd 953e 27c4 18be
00000070: b704 21be 6622 5dbc acb0 df3c 997e fcbd
00000080: 8d74 12be 7820 61be f29e 21be f1d9 67be
00000090: 3f2e 87bd 71be 503e a66f 503e e7ef 9cbe
000000a0: 60cf 91be dc01 62be 18fc d6bd 8b5e 003e
000000b0: ec1e 71be f1b8 763d d7e0 a43d cc52 163e
000000c0: cbce 853e 644a a0bc 4e6a 69be 53dd 633c
000000d0: 27e0 2e3e 337b 4d3e f9e7 48be 3a3a eabc
000000e0: 34df 4d3e 16c7 26bd e447 84ba 94f6 f238
000000f0: d3d5 45be 459f 473e cbe2 933e 5fae 46be
00000100: 4785 993e 4380 743e cae3 f6ba 431f 74be
00000110: bf74 d6bd 108c 7a3e fcf0 d3bd 11e3 e13d
00000120: 630a 3e3e da89 8ebe 7604 913e 7254 873d
00000130: 6645 9dbd 36a9 72be 752a 59be 38c8 fd3d
00000140: 523e 013d c234 863e 4b8d 4fbe 5996 083e
00000150: a251 d23c 6d28 393e 2e95 9abe c416 5d3e
00000160: 1e7f a7bc adf3 0f3e 23b3 8cbe 77d3 78be
00000170: 80a0 203e 443d 8abe 7bb1 ffbd 21ed 78be
00000180: 6911 87be 8a8a 423d e78a a13d c073 0bbd
00000190: c9c3 5f3e fc31 51be a80a 88be 6b7f 55bd
000001a0: e536 2d3e e790 6e3e 40c2 a0be 38ba 88be
000001b0: da39 973e c57f 86bd 6ed9 33bb f240 acbd
000001c0: 7de2 973e 88c6 e53c 95e0 95be a3c2 66be
000001d0: d69b 62be b4d2 9e3e 76e8 363e e9d9 3c3d
000001e0: 3473 cf3c 172a a23e 5254 723d fb07 a23e
000001f0: 10e1 28be a0d9 30be d8bc 293e 0b4d eebc
00000200: 77f7 0a3e fc85 6f3e 0693 fcbd a35c 113e
00000210: 8cc3 4a3d 33dd 0bbd 72d3 653d aa12 6ebc
00000220: d37b 903e a00b 56bd 75b9 e0bc 5ac4 74be
00000230: dc8e 5a3e 691e dd3b 3454 8bbe 4aa8 e3bd
00000240: 2880 243e 0c77 a83d 7b6c 97be a8e9 2a3e
00000250: d095 93be 7cc0 9a3e e16b 483e 05e7 11be
00000260: aff5 953e 2ca7 3b3e 855f c23c 39de d4bd
00000270: ff34 1b3e ef2f 86be 0c17 c53d 6933 f03d
00000280: 8e8d e23d 54d0 8f3e ee9e 163c 5eb0 683e
00000290: a7d5 89bd c501 27be 55bb 97be ac84 2bbe
000002a0: 7d5a f53d 22a3 083e 2846 323e 437e 8a3e
000002b0: ddb1 60be 15b6 82bd 800d 67be 627d c13d
000002c0: 668c 8cbe e415 e53c 6026 9fbe e3f9 063c
000002d0: 9922 f1bd 398a 5b3e bc75 dc3c a167 443d
000002e0: 110f 47be c56a c83d 0a3c ffbd 8b17 523c
000002f0: 7830 03be 274e 9f3e 3177 aabd 2148 f03d
00000300: 05a6 283e 21fb 9ebd e022 4dbe 7e51 2f3e
00000310: 473e 43be 7e1d 8b3e c2e2 76be 5c14 90be
00000320: fa12 1e3c 7ddb 9a3e 77b5 a7bc 6a0e 113e
00000330: 08ba 32be 8f12 02be 226a e7bc 4fdc 6cbe
00000340: d630 23bc b5b3 5f3e 0382 f03d 9395 943e
00000350: 6c98 503e 1685 31be 2339 893b 4352 9dbd
00000360: b48f 15be c898 d23d 41f2 76be 5057 663e
00000370: 5387 533e 5109 42be d889 303d 420a 4ebe
00000380: 52e4 21be a63c 9a3e cad3 5fbe c67d 203e
00000390: 9d02 f3bd d91e 9b3e 5e8b 1f3e 61b9 c63c
000003a0: 9517 273e d852 553e aa58 20bd dd55 b4bb
000003b0: 770c 69be 5f1c 9b3e 827f 76be 475a 713e
000003c0: e580 00bd bba8 2f3e 1aaa 7abe 7dba 6fbe
000003d0: cf16 033d 4a84 c73d e0ea 193e 6077 8bbe
000003e0: e26e 303d 325d 8dbe a315 dabd c272 2b3d
000003f0: ca5f a03e 79c1 d33d 1672 933d 0e62 88be
0.14039569 0.14744394 0.18712266 -0.17143077 0.16810825 0.30984572 0.14212681 -0.2397138
0.12217197 0.14932942 -0.05562053 -0.3127735 -0.07997891 -0.05437942 -0.16194294 0.2945049
-0.09879421 -0.1355829 0.14741877 0.13766007 -0.30580732 -0.013509964 0.012492211 0.24569519
-0.22317249 0.23640911 0.2924589 -0.14918576 -0.15724455 -0.013496971 0.027305923 -0.12328834
-0.14302273 -0.21985042 -0.15783289 -0.22641732 -0.066006176 0.20385148 0.2035509 -0.3065178
-0.28478527 -0.22071022 -0.10497302 0.12536065 -0.23546952 0.060234968 0.08050697 0.14680022
0.26134333 -0.019566722 -0.22794458 0.013907748 0.17077695 0.20066528 -0.1961974 -0.028592218
0.20104676 -0.040717207 -0.0010092226 0.00011585388 -0.19319849 0.1949435 0.28883967 -0.19402455
0.29984495 0.23877053 -0.0018836197 -0.2384005 -0.10471486 0.24467492 -0.103486985 0.110296376
0.1855865 -0.27839547 0.28323716 0.066079035 -0.07679252 -0.23697361 -0.21207602 0.12391704
0.031553574 0.26212126 -0.20268743 0.13338603 0.025673691 0.18081827 -0.3019194 0.21590716
-0.020446356 0.14057799 -0.2748042 -0.24299417 0.15686226 -0.26999867 -0.124850236 -0.24309207
-0.2638047 0.047495402 0.07887822 -0.034045935 0.2185203 -0.20429224 -0.2657063 -0.05212347
0.16915472 0.23297463 -0.313982 -0.26704574 0.29536325 -0.06567339 -0.002744283 -0.08410825
0.29664984 0.028048769 -0.29272905 -0.22535186 -0.22129759 0.3102013 0.17862114 0.046106253
0.025323488 0.31672737 0.059162445 0.31646714 -0.16492105 -0.17270517 0.16575944 -0.029089471
0.13570963 0.23390955 -0.1233273 0.14195494 0.049502894 -0.0341465 0.056109853 -0.014530817
0.2821947 -0.05225718 -0.027432183 -0.23903027 0.21343559 0.00674801 -0.2721268 -0.11116083
0.16064513 0.082258314 -0.29574952 0.16690695 -0.28825235 0.3022498 0.19572403 -0.14248283
0.29289004 0.1832549 0.023727188 -0.10393948 0.15156935 -0.26208445 0.096235365 0.11728556
0.11062156 0.2808863 0.009193165 0.22723529 -0.06730204 -0.16309269 -0.2963511 -0.16749829
0.1198015 0.1334348 0.17409575 0.27049455 -0.2194285 -0.06382386 -0.22563744 0.09447743
-0.27450866 0.02796454 -0.31083965 0.008238289 -0.11774177 0.21439447 0.026911609 0.04795039
-0.19439341 0.0978599 -0.124626234 0.012822996 -0.12811458 0.31114313 -0.08323515 0.117325075
0.16469581 -0.07762743 -0.20032835 0.1712093 -0.19066726 0.27170938 -0.24109939 -0.28140533
0.009648079 0.3024558 -0.020472271 0.14165655 -0.17453778 -0.12702392 -0.02824885 -0.23130916
-0.009960374 0.21845897 0.11743548 0.29020366 0.20370644 -0.17335925 0.0041877194 -0.07681706
-0.146056 0.10283047 -0.2411585 0.22494245 0.20657091 -0.18948866 0.043100208 -0.201211
-0.15809754 0.30124396 -0.21858135 0.15672979 -0.11865733 0.30296972 0.15580508 0.024258317
0.1631759 0.20832384 -0.039147057 -0.0055033998 -0.22758661 0.30295083 -0.24072078 0.23569594
-0.031372923 0.1715421 -0.24478951 -0.23410983 0.032004174 0.09742029 0.15031004 -0.27239513
0.043074496 -0.27610165 -0.10648658 0.04185749 0.3132308 0.10339636 0.071994945 -0.2663731

output.bias f4 [82]
00000000: 005f e63d c6bf 783e 076f 62be 6219 70be
00000010: eff2 833e 347c de3d b057 8dbe 96a6 7c3c
00000020: 8979 f13c 8005 42be 30c3 8cbe cd72 c3bb
00000030: 8f03 7d3d 40ab f43d ed2f 8abe 2cd1 6a3d
00000040: 143d 493e 84d5 25be 523a 98be 3464 273e
00000050: 4b9b ebbd 943c 0b3e 9346 81be 90d5 913e
00000060: 9618 a73d 8424 ac3d c988 e13d b4ba 8ebe
00000070: fed0 ef3d 949b 583e 1007 da3d 8189 c6bc
00000080: 7e0c c1bd 5470 013d 1067 3fbe 6d79 273d
00000090: 6b81 52be 0d0b 583e 8d05 39bd c945 1e3e
000000a0: 3fa3 a0bd cf7d a93e 70ff 4b3c 4d44 643e
000000b0: 3dfb 263e fe13 933e 4087 643e 84a4 9bbd
000000c0: 5150 843e 9390 373e 46a1 1bbe cd08 08be
000000d0: 8fea 973d d73d 8bbe da73 7cbd 3962 193e
000000e0: 2c6a b0bd 4a51 663e 5ed6 8c3e 2f45 ec3e
000000f0: 947e 1a3e 9894 dc3d bf57 ef3d da61 2d3d
00000100: e77b 83be 8408 34be ae55 683d 37aa 403e
00000110: ffe5 a13d 4614 c7bd 78e3 223e 9728 373c
00000120: d405 773e 5930 233e 68f3 aa3e 841e f63d
00000130: d37b 47be 5cdb 54be af20 2abe 1071 2dbd
00000140: ee0f 75be 644a 673e
0.112485886 0.24291906 -0.22112666 -0.23447183 0.2577128 0.108635336 -0.27605963 0.015420577
0.029476898 -0.1894741 -0.27492666 -0.005964613 0.061770972 0.11946726 -0.2698969 0.057328388
0.19652206 -0.16194731 -0.29731995 0.16346818 -0.11504229 0.13597327 -0.25249156 0.28483248
0.08158986 0.08405402 0.11012418 -0.27876818 0.11709784 0.21153098 0.10645878 -0.024235489
-0.09426211 0.031601265 -0.18691659 0.040887285 -0.20557182 0.21097966 -0.04517131 0.15456308
-0.07843637 0.33103797 0.012451038 0.2229168 0.16306777 0.2872619 0.22317219 -0.07599738
0.25842527 0.17926244 -0.1519824 -0.13284607 0.074177854 -0.27195618 -0.061633922 0.14978875
-0.08614001 0.22491947 0.275073 0.46146533 0.15087348 0.107705295 0.11686658 0.042329647
-0.25680467 -0.17581373 0.056722336 0.18814932 0.079051964 -0.09720664 0.15907085 0.011179111
0.24123317 0.15936412 0.3338883 0.12017539 -0.19480829 -0.20786804 -0.1661403 -0.042344153
-0.23931858 0.22586972
