1_WordRepresentations/word2vec.pt (torch_old, 7738 bytes, 4 tensors)

projection.weight f4 [10, 82]
-0.018490843 -0.06457888 -0.106646426 -0.03194793 0.07533758 -0.057169605 -0.047949385 0.0725489
0.09600576 -0.05154797 -0.042864952 -0.04821865 0.080972165 0.095602594 -0.08201408 -0.061581876
-0.0852192 0.1014752 0.067817 0.03081278 -0.08017652 -0.063250326 0.09188331 0.07200044
-0.006853861 -0.08042029 -0.02551619 0.066723235 0.026250433 0.09259273 0.05682873 -0.11601233
0.023469368 0.099353805 -0.028123489 0.09223244 0.081552915 -0.033451784 0.09942728 0.08853733
0.0016872906 0.07533699 -0.09646467 0.025791815 -0.00089565257 -0.04018759 -0.10445869 -0.007190341
-0.10349399 0.09427113 -0.0021689986 -0.022957733 -0.06762186 0.08116884 -0.055339854 -0.033791512
-0.019748757 0.07958604 0.09774934 -0.029741768 0.04919387 0.026600368 -0.10390959 0.08835887
-0.0028975108 0.0049936804 -0.082843006 9.591805e-05 -0.044385623 -0.10548161 0.04024715 -0.06392063
-0.035783432 0.09325387 -0.105922304 -0.07436547 0.045510694 -0.07794051 -0.027913788 -0.00023102446
-0.04056532 -0.051590454 -0.03703566 -0.08740729 -0.10778131 0.018978655 0.08531428 0.038049735
0.062714964 0.0026026247 -0.049143836 0.06885542 -0.102444515 0.026865898 0.04361818 0.001381135
0.02252353 0.08820545 -0.0041325 0.10266519 0.07215078 0.10275323 0.050070368 0.018178368
-0.057232924 -0.01207114 -0.06329936 0.05280088 -0.086971164 0.07894028 -0.021683937 0.06122644
-0.089424215 -0.014462149 0.09564361 -0.07786717 -0.019378327 -0.02848199 0.05476378 0.032074094
0.0043117316 0.049484294 -0.107581444 -0.037106935 -0.09859533 0.09760597 -0.09553058 0.11624257
0.035474934 0.09610214 0.03345401 -0.044651665 0.11041698 -0.045725323 0.0555945 -0.06024081
0.012969636 0.028583158 -0.029080193 -0.03983786 -0.085217856 0.0835713 0.0027020865 -0.10818725
-0.098389566 -0.009283125 -0.09731684 0.011484379 -0.0169813 0.093951255 0.09261848 -0.05961888
0.10007292 0.024585513 0.036503676 0.01493176 -0.0703098 0.0027989298 -0.097800136 0.07802995
0.08355975 0.04487154 0.021920556 -0.030036349 0.017815594 0.041139733 0.0024108284 0.050530806
0.00706924 -0.064171515 0.085515015 -0.06093501 -0.066546865 0.0033626503 -0.0018520069 0.05258611
-0.0784227 0.056653325 0.015628383 -0.09239456 0.046668787 0.03565468 0.017319024 0.083929166
0.07078814 0.029792802 -0.10402456 0.020411862 -0.021942891 0.018073186 0.05844543 -0.09113036
-0.013663659 -0.06009615 -0.101210795 0.012512992 -0.04406775 -0.082406625 0.08073515 0.059128683
-0.08073313 -0.08663296 0.08199332 0.0011389626 0.010410463 0.06742969 -0.061785225 0.05578389
-0.004346743 -0.035630167 0.013845869 0.087359734 -0.084226236 -0.0337238 0.019052047 0.10629472
-0.10892527 -0.012833456 0.0071040443 -0.04553305 0.023800999 -0.07857297 0.011096953 -0.069397084
0.03574586 -0.05076805 -0.041586295 -0.029192762 0.10441362 -0.015754843 -0.048087 -0.10380679
-0.049817223 0.07864649 0.067427196 0.065001406 -0.015421831 -0.025303505 0.0043536085 -0.019097455
-0.032684773 0.011654796 0.07250419 0.08192232 0.034535877 0.014035415 0.0452058 -0.076251626
0.023016937 0.014337482 0.06860697 0.078757435 0.10100221 -0.0031992483 -0.061211754 -0.09961897
00000000: 1c7a 97bc ef41 84bd 7169 dabd d5db 02bd
00000010: 974a 9a3d ad2a 6abd 9366 44bd 8594 943d
00000020: ab9e c43d f723 53bd 2993 2fbd eb80 45bd
00000030: bcd4 a53d 4bcb c33d fff6 a7bd 473d 7cbd
00000040: 6787 aebd 3bd2 cf3d a4e3 8a3d 156b fc3c
00000050: 9633 a4bd 6389 81bd 512d bc3d f774 933d
00000060: 5a96 e0bb 65b3 a4bd 5407 d1bc 31a6 883d
00000070: 260b d73c 42a1 bd3d 3ec5 683d df97 edbd
00000080: d542 c03c 027a cb3d 3b63 e6bc 5de4 bc3d
00000090: 3705 a73d bd04 09bd 88a0 cb3d 0f53 b53d
000000a0: 1428 dd3a 484a 9a3d 458f c5bd 5b49 d33c
000000b0: 3aca 6aba be9b 24bd 70ee d5bd f49c ebbb
000000c0: a8f4 d3bd 3911 c13d c225 0ebb db11 bcbc
000000d0: 547d 8abd d93b a63d 0bac 62bd f868 0abd
000000e0: 25c8 a1bc 01fe a23d ce30 c83d 02a5 f3bc
000000f0: 837f 493d 04e9 d93c 8dce d4bd 7ff5 b43d
00000100: 2ae4 3dbb 07a2 a33b 98a9 a9bd 9c27 c938
00000110: b3cd 35bd be06 d8bd 32da 243d d2e8 82bd
00000120: a691 12bd e3fb be3d cbed d8bd ec4c 98bd
00000130: 6c69 3a3d 469f 9fbd 75ab e4bc 283f 72b9
00000140: d227 26bd 8350 53bd b4b2 17bd 9802 b3bd
00000150: 73bc dcbd 2079 9b3c 41b9 ae3d 0ada 1b3d
00000160: b470 803d cc90 2a3b 0c4b 49bd 1204 8d3d
00000170: 6ece d1bd df15 dc3c faa8 323d 3307 b53a
00000180: 4483 b83c 0fa5 b43d ec69 87bb 2142 d23d
00000190: cac3 933d 4970 d23d 9616 4d3d cdea 943c
000001a0: 126d 6abd 08c6 45bc 18a3 81bd bc45 583d
000001b0: f01d b2bd 71ab a13d 83a2 b1bc 93c8 7a3d
000001c0: 0b24 b7bd a6f2 6cbc cce0 c33d d378 9fbd
000001d0: 4cbf 9ebc 1053 e9bc fc4f 603d 2060 033d
000001e0: 6d49 8d3b 0bb0 4a3d a953 dcbd 71fd 17bd
000001f0: 59ec c9bd a4e5 c73d 89a5 c3bd 9610 ee3d
00000200: 2a4e 113d 33d1 c43d 1207 093d aae4 36bd
00000210: 4c22 e23d 7a4a 3bbd 0fb7 633d 11bf 76bd
00000220: 997e 543c 3a27 ea3c 9639 eebc 062d 23bd
00000230: b386 aebd 6e27 ab3d 7d15 313b 4791 ddbd
00000240: 7880 c9bd 4018 18bc 0d4e c7bd fa28 3c3c
00000250: 5e1c 8bbc 8469 c03d c2ae bd3d ed32 74bd
00000260: 08f3 cc3d 8f67 c93c e184 153d 57a4 743c
00000270: 96fe 8fbd 406e 373b 704b c8bd 2bce 9f3d
00000280: 6021 ab3d 38cb 373d bd92 b33c ca0e f6bc
00000290: 02f2 913c 2382 283d fdfe 1d3b 64f9 4e3d
000002a0: 15a5 e73b 5b6c 83bd 7f22 af3d fd96 79bd
000002b0: b949 88bd e95f 5c3b 0abf f2ba 8864 573d
000002c0: 159c a0bd 510d 683d 1807 803c 5c39 bdbd
000002d0: c527 3f3d a40a 123d a0e0 8d3c 0ee3 ab3d
000002e0: 5ff9 903d 0910 f43c d40a d5bd c736 a73c
000002f0: 94c1 b3bc 380e 943c 7a64 6f3d 8ea2 babd
00000300: 8add 5fbc 6127 76bd 9b47 cfbd 4b03 4d3c
00000310: 6380 34bd cec4 a8bd 7858 a53d eb30 723d
00000320: 6957 a5bd 9f6c b1bd 1dec a73d 3e49 953a
00000330: a690 2a3c 9418 8a3d 8112 7dbd a67d 643d
00000340: 206f 8ebb f0f0 11bd c9d9 623c a9e9 b23d
00000350: ce7e acbd f821 0abd 0a13 9c3c 0cb1 d93d
00000360: 3614 dfbd 6a43 52bc 0bc9 e83b dd80 3abd
00000370: 50fa c23c deea a0bd ffcf 353c 0f20 8ebd
00000380: 406a 123d 29f2 4fbd 6456 2abd a925 efbc
00000390: cfd6 d53d 4d10 81bc e0f6 44bd a898 d4bd
000003a0: 250d 4cbd 6911 a13d 4517 8a3d 751f 853d
000003b0: d9ab 7cbc 4c49 cfbc b7a8 8e3b 4472 9cbc
000003c0: 78e0 05bd c2f3 3e3c 147d 943d e4c6 a73d
000003d0: 7e75 0d3d ccf4 653c b829 393d d029 9cbd
000003e0: 048e bc3c c2e7 6a3c d081 8c3d 944b a13d
000003f0: 3fda ce3d 7baa 51bb 2db9 7abd 0805 ccbd

projection.bias f4 [10]
-0.0718003 0.16466942 -0.048866794 -0.030281965 0.11371616 -0.10867713 -0.09651372 0.13350323
0.08736729 -0.3241025
00000000: 090c 93bd 1a9f 283e 8c28 48bd e211 f8bc
00000010: 05e4 e83d 1d92 debd fca8 c5bd 12b5 083e
00000020: 9fed b23d c3f0 a5be

output.weight f4 [82, 10]
0.28979897 -0.057912398 -0.1195338 0.24436498 0.20368025 0.29025468 -0.03170553 -0.047586378
-0.055210005 0.23972996 0.039143875 -0.2763848 -0.06187397 0.15815139 0.20329987 0.2838409
-0.2173372 -0.27134776 -0.25635383 0.12912756 0.2906552 -0.13632761 0.28984225 0.015280497
-0.11017958 -0.13384606 -0.047262136 -0.22029418 0.24228346 0.091000974 -0.09811581 0.04058599
0.105913416 -0.018179106 -0.21379636 -0.0065474194 -0.048057497 0.20585468 0.30724695 0.121407114
0.030693145 -0.12798294 0.27441126 0.20754866 0.15371001 -0.27481994 0.25041634 0.20698754
0.097559296 -0.0516008 -0.054908764 -0.16622494 -0.16269758 0.28610903 0.21432169 -0.056685057
-0.06195765 -0.06769924 0.0067986487 -0.21016082 0.042316627 0.011189901 -0.28402856 -0.17439453
-0.13634363 -0.07529008 0.16845162 0.23309174 -0.27679318 0.04445986 -0.02173629 -0.21665694
-0.20427212 -0.2502886 -0.17542309 -0.17102228 0.04314569 -0.034098785 0.18846862 -0.029838182
-0.012832974 -0.3145513 -0.24100354 0.018999103 -0.25804025 0.0012647029 0.08797954 -0.013439322
-0.1294239 -0.08671085 0.2642798 -0.11914062 0.157993 0.2893949 0.18360418 0.20052312
-0.122560576 0.24888808 0.29544187 0.054603085 0.19101745 0.03398681 0.15221687 0.053780314
-0.10771042 0.2563599 -0.28580293 -0.03744559 0.28009745 0.31766745 -0.1920903 0.08831051
0.2565442 0.2057754 -0.20875944 -0.045283493 -0.029574962 0.0082194535 0.006231015 0.019952614
-0.041239228 0.059794284 -0.14917849 -0.14071675 0.105170146 -0.0199967 0.18687953 0.28152657
-0.040023495 -0.03881441 -0.13983208 -0.1667855 0.24320857 -0.2614593 0.21068063 0.30968004
-0.13679732 0.06351861 0.21333182 0.21498817 0.25359836 -0.096235976 0.27706054 0.2662959
-0.28834364 0.1207142 -0.17271022 -0.29853255 -0.16833867 0.017689994 0.0889569 -0.2088091
-0.29095566 0.047794484 -0.10245222 0.028172756 0.28791803 0.12942767 0.29469147 -0.04819566
-0.2765645 -0.054362793 -0.054070346 0.14942315 -0.13960265 -0.12272391 0.12307336 -0.2776874
-0.06392935 -0.23208793 0.17123899 0.021397458 -0.28434485 0.24532153 0.0144230835 0.11508018
0.1379445 -0.15963686 -0.29066107 0.14415292 0.25964573 -0.14110732 -0.085029066 0.2919883
-0.0018616325 -0.031372454 0.2838068 -0.2651678 -0.1902037 -0.016544642 0.21769987 0.1832709
0.17111328 0.15451518 -0.24940221 0.25371227 0.21114658 0.23807159 -0.27143377 0.15111963
-0.033984337 -0.13701726 -0.18563928 0.18418863 0.10970408 0.061292637 -0.21625718 0.015513604
0.14381245 0.29335892 0.12439435 -0.11372709 0.06874055 -0.032147806 -0.3083899 -0.21775614
-0.038316224 -0.04248542 0.02286967 0.19436163 0.2338808 0.20352931 0.27336118 0.07449747
-0.086300306 -0.020841476 -0.26412597 -0.042375848 -0.03503318 0.3137275 0.25388947 -0.06325373
-0.27348003 0.03573651 0.020312209 -0.077120736 -0.2722671 -0.26505122 -0.30215558 0.23531473
-0.12913209 -0.095917284 -0.08423887 -0.18606779 0.0039062093 -0.007015752 -0.23352146 -0.0004299726
0.103859216 0.199857 -0.30800164 -0.027026763 0.18224558 0.016480139 -0.11967057 0.3010978
00000000: 8860 943e 8d35 6dbd 23ce f4bd d03a 7a3e
00000010: 8e91 503e 439c 943e a8dd 01bd efe9 42bd
00000020: e323 62bd c57b 753e 5455 203d 4f82 8dbe
00000030: 8f6f 7dbd 70f2 213e d72d 503e 9853 913e
00000040: a58d 5ebe 18ee 8abe cf40 83be 043a 043e
00000050: c2d0 943e 7799 0bbe 3466 943e 0d5b 7a3c
00000060: d5a5 e1bd f10e 09be f195 41bd cc94 61be
00000070: 2819 783e b85e ba3d f1f0 c8bd 7f3d 263d
00000080: 22e9 d83d 59ec 94bc 6fed 5abe bc8b d6bb
00000090: f0d7 44bd 92cb 523e 794f 9d3e 4ba4 f83d
000000a0: 3170 fb3c f60d 03be a27f 8c3e a387 543e
000000b0: 2866 1d3e 33b5 8cbe 9236 803e 8bf4 533e
000000c0: 2bcd c73d 5c5b 53bd 03e8 60bd df36 2abe
000000d0: 329a 26be e27c 923e 2577 5b3e 972e 68bd
000000e0: 4ec7 7dbd e6a5 8abd 33c7 de3b 6634 57be
000000f0: 3354 2d3d d955 373c 316c 91be 7b94 32be
00000100: aa9d 0bbe af31 9abd 957e 2c3e 9aaf 6e3e
00000110: d6b7 8dbe 8b1b 363d 4e10 b2bc 51db 5dbe
00000120: b62c 51be d425 80be 1ca2 33be 7720 2fbe
00000130: 89b9 303d 2bab 0bbd ebfd 403e 346f f4bc
00000140: 6541 52bc de0c a1be a2c9 76be 02a4 9b3c
00000150: da1d 84be 63c4 a53a 9e2e b43d 9a30 5cbc
00000160: b387 04be 7595 b1bd af4f 873e ffff f3bd
00000170: ebc8 213e 912b 943e bc02 3c3e ef55 4d3e
00000180: 0a01 fbbd 84dc 7e3e 2844 973e 7ca7 5f3d
00000190: 149a 433e c135 0b3d bdde 1b3e bf48 5c3d
000001a0: 4897 dcbd 9b41 833e c354 92be 8c60 19bd
000001b0: ef68 8f3e 4fa5 a23e 52b3 44be 24dc b43d
000001c0: c359 833e c9b6 523e 09c5 55be 2f7b 39bd
000001d0: 3147 f2bc e3aa 063c 8b2d cc3b aa73 a33c
000001e0: 77ea 28bd daea 743d 3fc2 18be 0d18 10be
000001f0: 7263 d73d 1fd0 a3bc 595d 3f3e 4024 903e
00000200: adef 23bd dcfb 1ebd 2430 0fbe d1c9 2abe
00000210: ab0b 793e fedd 85be aabc 573e 628e 9e3e
00000220: 9914 0cbe 0c16 823d a873 5a3e dc25 5c3e
00000230: a5d7 813e 5e17 c5bd e1da 8d3e f057 883e
00000240: c7a1 93be 0239 f73d f3da 30be 42d9 98be
00000250: f960 2cbe 9bea 903c 092f b63d 0dd2 55be
00000260: 24f8 94be 26c4 433d 78d2 d1bd 8dca e63c
00000270: fe69 933e b088 043e cde1 963e d068 45bd
00000280: dd99 8dbe 85ab 5ebd de78 5dbd 6202 193e
00000290: fff3 0ebe ac56 fbbd e30d fc3d 0b2d 8ebe
000002a0: 64ed 82bd 75a8 6dbe 4659 2f3e b949 af3c
000002b0: a695 91be 9135 7b3e cc4e 6c3c 28af eb3d
000002c0: 5341 0d3e d877 23be 87d1 94be d39c 133e
000002d0: 49f0 843e 707e 10be b823 aebd 7e7f 953e
000002e0: 0502 f4ba 6780 00bd 204f 913e 13c4 87be
000002f0: c2c4 42be a188 87bc b7ec 5e3e 5eab 3b3e
00000300: 5238 2f3e 3a39 1e3e 4b63 7fbe 93e6 813e
00000310: cf36 583e 0ac9 733e 5ef9 8abe 1bbf 1a3e
00000320: 2933 0bbd 414e 0cbe 3918 3ebe f29b 3c3e
00000330: 88ac e03d fd0d 7b3d 8672 5dbe c52c 7e3c
00000340: 9243 133e 2433 963e 77c2 fe3d c0e9 e8bd
00000350: d8c7 8c3d 6bad 03bd 48e5 9dbe 77fb 5ebe
00000360: 79f1 1cbd 3105 2ebd 2d59 bb3c bc06 473e
00000370: 737e 6f3e fd69 503e fff5 8b3e 2192 983d
00000380: 37be b0bd bebb aabc 853b 87be 4c92 2dbd
00000390: f47e 0fbd e4a0 a03e cdfd 813e 2c8b 81bd
000003a0: 9305 8cbe 7260 123d ca65 a63c 7af1 9dbd
000003b0: 9866 8bbe cbb4 87be 23b4 9abe 58f6 703e
000003c0: 343b 04be 4870 c4bd 6e85 acbd 8e88 3ebe
000003d0: 51ff 7f3b 65e4 e5bb 4020 6fbe f26d e1b9
000003e0: 24b4 d43d 50a7 4c3e 64b2 9dbe 3b67 ddbc
000003f0: 969e 3a3e 5b01 873c d815 f5bd 7e29 9a3e

output.bias f4 [82]
-0.19712111 -0.17470355 -0.23090662 -0.1663462 0.2367938 0.3140878 -0.014118757 -0.15745167
0.1548293 -0.1521593 -0.27864712 -0.22180976 -0.06514043 0.24165028 -0.12498071 -0.26611954
-0.09980856 0.025495652 0.27387428 0.26256716 -0.2450243 0.04216778 -0.08902968 0.25334805
-0.028605277 0.2472383 0.072412014 -0.15362608 -0.16743168 0.17250504 0.06463774 0.30464023
0.52982646 0.039446544 -0.15789378 0.050591003 -0.27122882 0.16184483 -0.15127037 -0.026066005
0.21265493 0.19057694 -0.046897262 -0.18374182 -0.0047366214 0.2454879 -0.20040126 -0.13072738
0.12262462 0.22688678 -0.3264761 -0.11205997 0.25336298 0.25642595 -0.17548028 0.09032615
-0.2070468 0.21979132 -0.25794005 0.23594971 -0.2878364 -0.039025422 0.20973195 0.17805296
-0.22090013 -0.17645912 0.0001420345 0.092490345 -0.2544791 0.16258109 -0.10643736 0.088050775
0.07117258 -0.24375443 0.22698405 -0.23028061 0.035978276 -0.21598695 0.23981296 -0.20411837
-0.28862813 -0.0693146
00000000: 1eda 49be 7de5 32be c972 6cbe a956 2abe
00000010: 137a 723e 1ed0 a03e 5c52 67bc 033b 21be
00000020: 928b 1e3e a6cf 1bbe d6aa 8ebe 1922 63be
00000030: 5968 85bd 2c73 773e e3f5 ffbd d240 88be
00000040: 6e68 ccbd 42dc d03c 4039 8c3e 346f 863e
00000050: a6e7 7abe 1fb8 2c3d 3155 b6bd d6b6 813e
00000060: 9d55 eabc 092c 7d3e c04c 943d 2850 1dbe
00000070: 3673 2bbe 29a5 303e cb60 843d cef9 9b3e
00000080: b5a2 073f b392 213d e8ae 21be 8338 4f3d
00000090: 81de 8abe a7ba 253e 9fe6 1abe 6088 d5bc
000000a0: 37c2 593e 9a26 433e 5817 40bd d126 3cbe
000000b0: a935 9bbb 2e61 7b3e fd35 4dbe 66dd 05be
000000c0: 9e22 fb3d 0255 683e e027 a7be b37f e5bd
000000d0: cbb8 813e 434a 833e 1ab1 33be ebfc b83d
000000e0: 1404 54be fa10 613e b810 84be cd9c 713e
000000f0: 4b5f 93be 1fd9 1fbd f9c3 563e 8453 363e
00000100: a533 62be b3b1 34be 19ef 1439 946b bd3d
00000110: 164b 82be a87b 263e d5fb d9bd f753 b43d
00000120: eec2 913d c39a 79be 826e 683e aece 6bbe
00000130: f55d 133d af2b 5dbe 8791 753e 6804 51be
00000140: 11c7 93be d0f4 8dbd
